trained_models/Net_default/checkpoint_0.pth.tar (torch_old, 212008 bytes, 6 tensors)

linear1.weight f4 [10, 2]
00000000: 5a9f 173e eedf 53bf a1d9 3ebf 0da9 803d
00000010: 7fec 5b3e a843 30be 2b4f 283e eac2 473d
00000020: cfce f63e 8f6d 24bf d1ac 04be b31b 5a3e
00000030: 5005 9a3e f830 5fbd c023 c2be 90c4 3bbd
00000040: 8067 9fbc 4e1c d3be 1c9c ad3d 63af ce3d
0.14806882 -0.82763565 -0.74550825 0.06282244 0.21476935 -0.17213309 0.1643645 0.04876987
0.48204657 -0.64229673 -0.12956549 0.21299629 0.30082178 -0.05449006 -0.379179 -0.045841753
-0.019458532 -0.41232532 0.08477041 0.10092046

linear1.bias f4 [10]
00000000: f3ef b13e bc47 553e a7de bbbe 39e3 0ebd
00000010: 9da7 62be 0292 4dbf 77f5 623e fea2 df3e
00000020: 7037 53be 06ee 02bf
0.3475338 0.20828146 -0.36693308 -0.034884665 -0.22134252 -0.80300915 0.2216395 0.4367904
-0.20626616 -0.51144445

linear2.weight f4 [100, 10]
00000000: d442 603e 9e50 27be 26fe f03d 8684 9bbe
00000010: dfc5 b6bd 5e48 85be a21d 27bd 268f febd
00000020: 5a55 8dbe bb0b 69be 1043 983d 8af5 7c3e
00000030: 3d4a 843c d7a9 debe 95d5 86be f77a debe
00000040: ec5e 623d 18d4 70be 5091 10bd 6afb 143e
00000050: c78c 8bbe 2c98 a8bd 812c 4b3e 239b f4bd
00000060: e3b1 0dbe 5364 98be 12f1 1bbe a8de 6e3d
00000070: d885 e8bd 0f65 92bc acc7 7fbd 9e84 523e
00000080: ee66 053e d9fe 5a3d ebce debc ea8f edbd
00000090: 5aac 5cbe 40c3 45bd 6a5e 36be 67bc 2ebe
000000a0: 7be8 963e c736 3ebe d3f0 81be d2a1 ccbd
000000b0: 5876 a7bd cac6 9ebe 0e13 52be ed67 32be
000000c0: ad6f 94be 3ac7 623e de82 e9bd 136e c5bd
000000d0: 3ee6 673d b06d 1c3d 3c9f 12bd da2c aabd
000000e0: ca9e 67be 8836 5abe ede7 8bbe 25a6 e7bc
000000f0: 4d5d 8bbe e5a2 9a3e 2d8b 37be 303b b9bd
00000100: 308b 483d 9615 7c3d bacc 9abe 6ecb 4dbe
00000110: e8c9 febd 2cbd 3ebe 828c 67be 0542 2cbe
00000120: 5a70 6ebc f634 a7be 5c2c 95bb d003 5dbd
00000130: ded4 673d 6049 a7bc 620c 183e b933 8b3b
00000140: f611 3c3d 3a02 5abe 25d2 efbd 3476 b1be
00000150: 2a80 723d bef1 20be 8e8b ca3c 40f0 9ebc
00000160: 5cd4 323e e3fc c6be c102 813d 9207 603d
00000170: cd4c 363c e36c 48bd 81b2 bfbe 76cd 27be
00000180: e4ff 943d ac8e c03d aad8 433e b757 f0bd
00000190: b01e 49bd 8561 3d3d 45a2 bbbe ea7b 213d
000001a0: 621a 15be 6d4c ce3c 5227 09be e041 2a3d
000001b0: 3803 263d f26c 24be f470 e83c 9937 213d
000001c0: a076 73be f391 15be 362e 9c3d 8a10 82bd
000001d0: a73c afbd e496 113e a63c 5abe 29fd 20be
000001e0: 81a4 3cbe 24cd 703e 7024 8ebd f178 a23c
000001f0: 8e1d 57be 18fb c4bd 7bc4 1abc 5ead 4f3e
00000200: b076 3dbd 9190 51be 1dfa 763d 7b91 92bd
00000210: 46a8 e3bc 4528 66be 3817 0bbe 3597 bc3d
00000220: 0258 0c3d be20 0d3e 9af2 3abe 174c bebe
00000230: d0e2 783d f03a b9be e959 7bbc 4fef 9d3d
00000240: b4d2 7dbd b5c6 2abd 78f1 98be 2a16 92bd
00000250: b042 b23c 95d5 b83b c6ab febd 8812 083d
00000260: e357 043c fc59 a2bd bbaf febc 9cbb 06be
00000270: 9020 16be 8e1b 563e 18a7 f93d b878 c6be
00000280: df48 3dbd bd42 3a3e 23ec 61be 1eb7 6abe
00000290: 7630 03be d508 8f3d ffe5 603d 86b2 03be
000002a0: f9b8 29be 62d5 35be 8748 01be f02e 73be
000002b0: e681 b0be 490a b2be 5aa6 0fbc 4f66 8cbe
000002c0: fda6 733d d9e9 8fbe 84d0 be3d 5bb5 993d
000002d0: d6fc 01be 23ce 92be 9133 023e fa9b a5be
000002e0: 3749 26be 3e75 dbbc 89da 993c b6ef 243e
000002f0: 6521 87be 0499 2f3e fc71 8abe e5b3 693d
00000300: 679a 5ebe ff4a 3bbe c073 9d3d d35c 963d
00000310: e9b9 abbe 3ef9 85be 1740 943e f637 d4bc
00000320: 8fbe 993e 49ad ab3d c3a6 94be 3357 32be
00000330: 674e 92be f88a c7bd c257 80bd 1d8a 23be
00000340: a264 cabd 53ec 253e 2a14 89be 98c4 7abd
00000350: d03c 8fbe e9ed 11be b2f7 953d fbff bfbe
00000360: 920f 8bbd 85ca a13e 9ce9 053e 6ebd 81bc
00000370: 3045 123d 7833 91bd b06c 82be 49f2 b7bc
00000380: 4d01 0dbe 5cce 57be fb81 863d 8ee0 87be
00000390: a02b 64be e6b4 8cbd 1051 6bbe 887a 5ebd
000003a0: aa45 7c3e 38bd b0be e0c8 98be 4cc2 b3bd
000003b0: a385 89be 3e80 003e 5af5 e1bd b895 e03d
000003c0: a8e8 183e d85a 103e 2719 f33d 7bb9 39be
000003d0: c4e8 a8be 60ca 14be 5313 ffbd c99d 95be
000003e0: 02c5 7f3e de14 e53d 3954 443e c087 c4bc
000003f0: ede9 d5bd 4156 a83c 98f1 b2bd 9c15 ccbe
0.21900493 -0.16339347 0.11767225 -0.30374545 -0.0892446 -0.26031774 -0.040799744 -0.12429647
-0.2760418 -0.22758381 0.07434666 0.2470304 0.01614868 -0.43488953 -0.26334825 -0.4345319
0.055266306 -0.23518407 -0.03529483 0.14549032 -0.27255842 -0.082321495 0.19841196 -0.119436525
-0.1383739 -0.2976404 -0.1522868 0.05831781 -0.11353654 -0.017870454 -0.06244628 0.20558402
0.13027546 0.053465698 -0.027198276 -0.11599715 -0.21550122 -0.048281908 -0.17809454 -0.17064057
0.29474244 -0.18575583 -0.25379047 -0.09991802 -0.08176869 -0.3101104 -0.20515081 -0.17422457
-0.28991452 0.22146311 -0.11401914 -0.096401356 0.05661606 0.038190544 -0.03579639 -0.08309336
-0.22619167 -0.21309865 -0.27325383 -0.028277466 -0.2721962 0.30202404 -0.17924185 -0.09044492
0.048960865 0.061544023 -0.3023432 -0.20097134 -0.12440854 -0.18626851 -0.22612193 -0.1682206
-0.014553154 -0.32657593 -0.004552407 -0.053958714 0.05659949 -0.02042073 0.14848474 0.004248109
0.045915566 -0.21289912 -0.11710004 -0.34660494 0.059204258 -0.15717217 0.024724748 -0.01940167
0.17463821 -0.38864812 0.062993534 0.05469472 0.011126709 -0.048931967 -0.37440875 -0.16386971
0.0727537 0.094022125 0.1912562 -0.1173548 -0.04910153 0.04623558 -0.3664724 0.039424814
-0.14560845 0.025182927 -0.13393906 0.04156673 0.040530413 -0.16057184 0.028374173 0.039359663
-0.2377572 -0.14606456 0.076260015 -0.06350811 -0.085564904 0.14217716 -0.21312198 -0.15721573
-0.18422128 0.23515755 -0.06940544 0.01983306 -0.21007368 -0.09618205 -0.009446259 0.20280978
-0.046255767 -0.20465304 0.06029712 -0.071566544 -0.0277902 -0.22476299 -0.13583076 0.09208528
0.03426362 0.13782021 -0.18256608 -0.37167427 0.06076318 -0.36177778 -0.0153412605 0.0771166
-0.06196852 -0.041693408 -0.29871726 -0.07133134 0.021760315 0.0056406953 -0.12435107 0.033220798
0.008077594 -0.079273194 -0.031089654 -0.13157505 -0.14660859 0.20908949 0.12190074 -0.38763976
-0.046212073 0.18189521 -0.22062735 -0.22921416 -0.12811455 0.069841065 0.05490684 -0.1286107
-0.16574468 -0.1775718 -0.12625323 -0.23748374 -0.34474105 -0.34773472 -0.008767689 -0.27421805
0.059485424 -0.281081 0.09317115 0.07505294 -0.12694106 -0.28672895 0.12714984 -0.32345563
-0.16238867 -0.026789304 0.018780963 0.16107067 -0.26392666 0.17148215 -0.27040088 0.057056326
-0.21738587 -0.18290327 0.07688093 0.073419236 -0.33540276 -0.2616672 0.28955147 -0.02590559
0.30028197 0.08382661 -0.2903348 -0.17416076 -0.2857544 -0.09743303 -0.062667385 -0.15970655
-0.098824754 0.16203432 -0.26773196 -0.061222643 -0.27976084 -0.14250912 0.07322635 -0.37499985
-0.06790079 0.31599823 0.13077396 -0.015837397 0.035710514 -0.07089895 -0.25473547 -0.022454398
-0.13770027 -0.21074814 0.065677606 -0.2653851 -0.22282267 -0.06870441 -0.22980142 -0.054316074
0.2463595 -0.34519362 -0.29840755 -0.087772936 -0.2685977 0.1254892 -0.11033125 0.109660566
0.14932501 0.14097154 0.11870032 -0.18137161 -0.32990086 -0.14530325 -0.12454858 -0.29221943
0.24977496 0.11185621 0.19172753 -0.023990512 -0.104450084 0.020548942 -0.087374866 -0.39860237

linear2.bias f4 [100]
00000000: e4fd 1cbe 3140 86be f127 c4be 6088 13be
00000010: 2cdc fe3d b5be 4a3d 2db6 a0be ae90 a8be
00000020: d8b0 1abe fa63 b6bd aefe 7fbe 7d2f 5fbe
00000030: 89cf adbe a733 21bd 1a4f e4be 2c57 003d
00000040: 6072 6d3b 0cb4 3cbd c219 b9bd 0dde a6be
00000050: e60a ff3d 6b69 8fbd b04f de3b 3367 97ba
00000060: d592 c1be b5de 013d 9390 6dbd 54e4 b1be
00000070: 4322 86be e71d f0be a01c 85be f0b7 cb3c
00000080: 4061 133d 3da6 45be 2784 b7be 658c fabe
00000090: f54e 02bf 224b 20be 98d7 37bd 4a4a 1bbe
000000a0: 990e 84be ecb5 d6be a514 b7be 0ba2 90be
000000b0: 6700 0cbe b8c0 91be bce1 313d 8b9a 11be
000000c0: cce5 58be fb9a f7bd d327 a0be fd69 85be
000000d0: ceb2 633e 0f27 a5bd bff7 74bd 6e7e 42be
000000e0: b5f4 3c3d 0c40 a43c e59e 15bf b26b b5bd
000000f0: 0bc2 bebd 02e1 3b3e ea47 dbbe fba4 99be
00000100: 745a a8bd 5406 2dbd a1a1 d3bd 6cf1 a53d
00000110: 7cfd 82bd 6c43 c4be fbdb eabe ed97 e8be
00000120: 4c22 b6be e9fb 92bd 9a67 89be d800 9f3d
00000130: 9be5 babe cb0c 693d b193 f2be 3ab6 1fbd
00000140: 0e98 3d3d e97c 2ebe 3283 e5be 9f20 323e
00000150: b941 8fbc fbda 823e 88eb 14be d0fa 913d
00000160: d0d1 05be d383 813e 3ab4 99be ffdf fbbe
00000170: f1e1 5fbe 2c78 73be 6ed5 ba3d 30fc b6be
00000180: 3d21 4d3d 6eb8 743e 365b eabe c457 2fbe
-0.15331227 -0.2622085 -0.38311723 -0.14407492 0.12444338 0.04949828 -0.3138899 -0.32922882
-0.15106523 -0.08905788 -0.24999496 -0.21795459 -0.339474 -0.0393559 -0.445916 0.031333134
0.0036231503 -0.046070144 -0.09038116 -0.32591286 0.124532506 -0.07002529 0.006784402 -0.0011551142
-0.37807336 0.03170653 -0.057999205 -0.34744513 -0.26198015 -0.46897814 -0.25998402 0.024867982
0.035981417 -0.19301696 -0.35843012 -0.48935238 -0.5090173 -0.15653661 -0.04488334 -0.15165058
-0.25792387 -0.4193567 -0.35757938 -0.2824863 -0.13672028 -0.28467345 0.043428168 -0.1421911
-0.2118141 -0.12090107 -0.31280383 -0.26057425 0.22236177 -0.080640905 -0.05980658 -0.18993542
0.04613181 0.020050071 -0.5844558 -0.08858432 -0.093143545 0.18347552 -0.42828304 -0.30008683
-0.082203776 -0.042242363 -0.10333563 0.08102688 -0.063960046 -0.3833269 -0.45870957 -0.4542841
-0.3557304 -0.07176954 -0.26836854 0.07763833 -0.365033 0.056896966 -0.47378305 -0.038992144
0.04628759 -0.17039837 -0.44826657 0.17395256 -0.017487394 0.25557694 -0.14542973 0.07127917
-0.13068318 0.25295886 -0.30020314 -0.49194333 -0.21863534 -0.2377631 0.0912274 -0.3573928
0.050080527 0.2389848 -0.45772713 -0.17123324

linear3.weight f4 [511, 100]
00000000: 16e0 67bd a203 f4be fe3e 24be fa81 f8bc
00000010: ec18 a03c df2b 7dbb 0817 73be 828d 3bbe
00000020: 4317 23be f87f 3cbe 56a8 50bd d7bd a1bd
00000030: 14d0 b0bd 474e 3abd 2f3d 1dbe 2c6c 19be
00000040: 3953 c9bc 96fe 12be 511d 33be f900 f9be
00000050: b12d afbd 46b9 83be c2e7 18bc b41c 70be
00000060: aacd 3cbe a55f a93c eaf7 4fbe be3b a9bd
00000070: e397 babc dbec edbd 404c 1dbd a0e3 8ebb
00000080: 4f80 a2be 70a2 73bc c1c8 93bd eb85 afbd
00000090: fdd3 fabd 342b e7bc c20c 8dbd 05ca c3be
000000a0: 88f0 58be a518 0abe 4d37 f0be a881 c3bc
000000b0: 79f8 19be ddac 47be 2e25 0a3c b80b b3be
000000c0: b0e6 8c3b 3404 f6be d79e 8ebe b2c3 b6bd
000000d0: 70be 7bbc cc06 ebbd 60a3 bdbc b634 15be
000000e0: 2a02 56bd 6f94 69bd 79b4 22be 5954 b83d
000000f0: 067d 78bd ff90 aebd 6668 2dbe 6099 94be
00000100: 004c 75be 2010 20be 3885 abbc e08b ffbb
00000110: 363b 1dbe 3423 01bb 71dd 28be 07d8 87be
00000120: ee32 bebe 1408 04be 9088 c3bd 6301 7ebd
00000130: d215 afbc c6bd 11be 2e22 a9bd e2ee 1cbe
00000140: 6ab9 ebbc d6ee 0ebd 4570 b3bd 17cf 23be
00000150: 92cb a63c 0043 83b9 0333 973d f3c2 4ebe
00000160: 48f2 eebe f23e 083d 911f 46bd 58fd 9ebd
00000170: a16b d13c 9c35 a1bd a7ab dcbe ffbd 35bd
00000180: 18d0 e0bd 39e6 a23d 9b5f c6bb 028e b93c
00000190: 3d15 953d 9c48 d2be 08ac 84bd 542c 1dbd
000001a0: cd9b a1bd c864 b9bd 539c 2abe 2658 8fbe
000001b0: 2551 08be d4f1 a4be a2ec 89be 49ab 15be
000001c0: 5a9c ccbd 6178 4bbe c4bc fdbe 91c1 f6bd
000001d0: 44d5 3ebe ee93 9ebe 5938 90be 0fe0 03bf
000001e0: 17b0 07be 5b86 fbbd 2e7b 2cbe 7cc8 1abe
000001f0: d771 25bd 39a8 71be 5ccb b4be cffb a9be
00000200: 5035 69be f740 96bd a46a 19bd ef0e b23d
00000210: 268b 9bbe 6305 a1bd 8441 24be 0566 8ebe
00000220: 7839 bbbe 6ac3 51be a5a3 c5bd 9a0c 8abe
00000230: af02 aebd 57ac e8bd ccc3 cbbe 2372 9c3d
00000240: 7fb0 4fbe 6b60 30bd 7ad8 51be 07f1 87be
00000250: a03a 6cbd 10fe e2be cd17 b0bd 499b f2bc
00000260: 40e6 8a3c d779 e3be 8156 aa3d 2421 963c
00000270: 6b68 2cbd 481a e9bd 3cd3 8dbe 2008 fcbb
00000280: 0e00 99bd 20e1 8a3b 936e 59be d550 c6bd
00000290: 2b2b 52be de65 46be 15e8 25bb caae 8abd
000002a0: d556 babd 6d31 e9bd fad1 7dbe c1da 4fbe
000002b0: 01bd cbbe f090 bfbe 369e 953d 8d80 74bd
000002c0: d087 74be 3775 d3bc dc8b 28be 7e23 18be
000002d0: a789 e0bd d14d 9dbd 9df1 2bbe c797 88bc
000002e0: b0ea b0bd 80dd 62bc f7af 1dbd 76db 84be
000002f0: 5090 e9be 4c11 89bd cdfb 03be 8441 37be
00000300: b87f d0bd 9907 6fbe 9b99 f4be 7f1f 6cbe
00000310: d8a9 53be 17cd 76bd f22a fbbd 0d32 0dbc
00000320: 2d9c 483c fc16 d0be 1d78 7dbe 2ab0 98bc
00000330: 083f a3bc 1983 e8bd 25b0 8bbe 20f9 09be
00000340: f7cb f7bd db81 efbe 7107 97be ae93 7cbe
00000350: 6014 d5bd 312a 38be 6b33 00bf 2af7 95be
00000360: 49c2 63be 52cc 9cbe abee 95be 573d bdbe
00000370: 32f1 efbb 60af 60be 6abd a73d 9b17 60bd
00000380: aae2 22be 6e4c 79be 8745 bfbe 66d8 32be
00000390: 2735 1ebe 8a1f 2ebe 78a8 5e3d f1b6 8c3d
000003a0: 78dd 9cbe 56e0 0f3d 85c5 15bc 7f9d 6dbe
000003b0: 5d59 afbe 2676 6cbe 0248 8dbd 3040 72be
000003c0: 17d8 1dbe 8370 17be 00c4 99be f380 33bd
000003d0: d90b bbbe 8b89 49be a24d 89bd fb62 13be
000003e0: 5673 a5bd b0ef 00bf adf1 73be 5f3a 063d
000003f0: 10ae 0dbd 9be3 ecbe ebd7 b33d 6d2c 333d
-0.05661019 -0.47659022 -0.16039655 -0.030335415 0.019543134 -0.0038630886 -0.23739254 -0.183157
-0.15926842 -0.18408191 -0.050941788 -0.07897537 -0.08633438 -0.045484807 -0.15355371 -0.1498267
-0.024575816 -0.1435493 -0.17491652 -0.48633555 -0.08553637 -0.2572729 -0.009332599 -0.2344845
-0.1843783 0.02067549 -0.20309415 -0.08263348 -0.022777503 -0.11617442 -0.038402796 -0.004360631
-0.31738517 -0.014870271 -0.07216025 -0.08570465 -0.12247465 -0.028218843 -0.06887199 -0.38240066
-0.21185505 -0.13485964 -0.4691719 -0.023865536 -0.15036191 -0.19499536 0.008431716 -0.34969878
0.004299961 -0.48050082 -0.2785556 -0.08924045 -0.015365228 -0.11475906 -0.023149192 -0.14570889
-0.052248158 -0.057026323 -0.15889157 0.09000463 -0.060666107 -0.085237496 -0.16934356 -0.29023266
-0.23954773 -0.15631151 -0.020937547 -0.007798657 -0.15354618 -0.001970482 -0.16490723 -0.26532003
-0.3714823 -0.12893707 -0.095475316 -0.06201304 -0.02137271 -0.14232549 -0.082584724 -0.15325502
-0.028774936 -0.03489574 -0.08761648 -0.15996967 0.020360742 -0.00025036186 0.073827766 -0.20191555
-0.4666922 0.033263154 -0.048369948 -0.07763165 0.025564017 -0.07871553 -0.4309971 -0.044370648
-0.10977191 0.07954068 -0.0060538775 0.022650722 0.072794415 -0.41071022 -0.06478125 -0.038372353
-0.07891045 -0.090524256 -0.16661195 -0.2799694 -0.13312204 -0.3221575 -0.2693835 -0.14616121
-0.09990759 -0.1987014 -0.4955808 -0.120486386 -0.18636042 -0.30972236 -0.2816799 -0.5151376
-0.13250767 -0.12281486 -0.16843864 -0.15115541 -0.04039177 -0.23599328 -0.353114 -0.33199927
-0.22774243 -0.0733661 -0.037455216 0.086942546 -0.303796 -0.078623556 -0.16040617 -0.2781221
-0.36567283 -0.20484701 -0.09650353 -0.2696274 -0.084966056 -0.11360996 -0.3979782 0.07638957
-0.20282172 -0.0430607 -0.20492736 -0.26551077 -0.057673097 -0.4433446 -0.0859829 -0.029615061
0.016955495 -0.44428894 0.083172806 0.01832635 -0.04209177 -0.11381966 -0.27700222 -0.0076913983
-0.074707136 0.004238263 -0.21233587 -0.09683386 -0.2052428 -0.19374797 -0.0025315334 -0.067716196
-0.09098593 -0.1138638 -0.24787131 -0.20298292 -0.39792636 -0.37415266 0.07305567 -0.059692908
-0.23879933 -0.025812728 -0.16459602 -0.14857289 -0.10963755 -0.07680858 -0.16791387 -0.016673936
-0.08638513 -0.013846755 -0.03849789 -0.25948685 -0.45617914 -0.06692752 -0.12889023 -0.17896086
-0.101806104 -0.23342742 -0.47773442 -0.2305889 -0.20670259 -0.060254183 -0.122640505 -0.00861789
0.012244266 -0.40642536 -0.24752851 -0.01863869 -0.019927517 -0.1135313 -0.27282825 -0.1347394
-0.1209945 -0.4677876 -0.29497865 -0.2466571 -0.10404277 -0.17984845 -0.5007846 -0.29290134
-0.22242083 -0.30624634 -0.29283652 -0.3696086 -0.007322454 -0.219419 0.08190425 -0.054710012
-0.15906778 -0.24345562 -0.37357733 -0.17465362 -0.15449964 -0.17004219 0.054359883 0.06870831
-0.30637717 0.035126053 -0.009141331 -0.23204611 -0.34247866 -0.23091945 -0.068985 -0.23657298
-0.15414463 -0.14789014 -0.3003235 -0.043824147 -0.36532477 -0.19681375 -0.067042604 -0.14393227
-0.08078639 -0.50365734 -0.2382266 0.03277051 -0.034589827 -0.462674 0.087814175 0.04374354

linear3.bias f4 [511]
00000000: 7138 09c1 0400 0ac1 4e60 09c1 8317 05c1
00000010: bb71 0ac1 1d47 0bc1 6a1f 09c1 91cf 0ac1
00000020: a849 0ac1 dc80 0ac1 e513 0cc1 b1de 0bc1
00000030: 6845 0bc1 4ba4 08c1 304d 0bc1 9a1f 0ac1
00000040: dd02 0ac1 3b7b 0bc1 9167 09c1 fb94 09c1
00000050: 01a5 0ac1 d9af 0ac1 b6c6 09c1 4df9 09c1
00000060: 29b0 0ac1 31c1 0bc1 4210 e2c0 fe24 fcc0
00000070: 1882 a7c0 a407 88c0 2182 a5c0 3e2a 81c0
00000080: c172 79c0 aade 77c0 0254 6ac0 1763 57c0
00000090: eacf 6ac0 96bd 66c0 3409 47c0 becd 34c0
000000a0: 5d37 3ac0 97a3 21c0 2781 41c0 7483 28c0
000000b0: 2e3f 5dc0 ea6a 32c0 48f7 17c0 836c 27c0
000000c0: 1d9f 32c0 5ba0 21c0 2bd0 ffbf 1572 06c0
000000d0: afb7 17c0 1a40 00c0 55f2 20c0 9ccd 07c0
000000e0: ca83 fcbf c660 fdbf f55a 0bc0 7843 02c0
000000f0: 61f8 fcbf c0bf dbbf 1d9d e5bf 2887 f4bf
00000100: 8991 f3bf e4f4 cbbf 573a e5bf f8f4 f3bf
00000110: 0d58 e3bf 74be 0dc0 c463 e8bf b2a1 debf
00000120: a1cd bcbf 24df d2bf 8400 e2bf b433 c3bf
00000130: 1732 b2bf 754b b1bf 29d9 c9bf 1fb3 cfbf
00000140: 4276 b6bf 1d9a c1bf d7b4 a3bf 09ee a0bf
00000150: e510 abbf 4f05 b4bf 8437 d6bf 5096 c1bf
00000160: feb3 c5bf 48e5 92bf 77bb 9abf 9b3e cfbf
00000170: 2128 a7bf affd e1bf c9a4 d3bf 50d2 84bf
00000180: b7ca a1bf b335 9ebf 1d96 bcbf 4e60 71bf
00000190: 172a ccbf dbb0 57bf 5040 babf 679a 8dbf
000001a0: 954d 85bf 6891 6dbf 3b5e 6ebf e8d7 c7bf
000001b0: 00c0 96bf e6fe 81bf 5606 70bf 6c09 8cbf
000001c0: e560 8dbf a270 60bf 0ebb 4fbf 5b7d 80bf
000001d0: 6c69 9dbf 6042 5abf 47e3 74bf ba32 84bf
000001e0: b6dd 91bf c2e8 29bf 85ed 86bf 4594 61bf
000001f0: 1e01 78bf 8141 4fbf 9dbd 44bf 22bb 4fbf
00000200: 75d8 32bf 44b3 94bf a965 45bf ab28 30bf
00000210: afbb 63bf 45f3 00bf 2bc9 78bf 2790 1ebf
00000220: 15f5 42bf 2cc9 47bf 8242 4fbf d7ab 1abf
00000230: 8676 7abf 5a02 6ebf 7392 50bf cd97 42bf
00000240: 36e0 12bf 7f18 02bf 2b04 56bf 327a 12bf
00000250: 5f35 0fbf 8669 28bf e222 20bf 5b66 4fbf
00000260: 58cf 0abf df67 f4be b12d 27bf 9860 47bf
00000270: e3d5 1abf b311 37bf 81e7 5ebf 6a91 babe
00000280: 8d2f 0abf 8ee7 04bf 81c1 f1be 6f58 06bf
00000290: 3b9f aabe 77bd e2be b41f ebbe aa09 d2be
000002a0: 06f3 d8be bc9c bebe 0d7f 2cbf 078c 29be
000002b0: 1530 dbbd 9c6b b3be 0869 0fbf 76c0 17bf
000002c0: 8503 d6be 3ce2 0ebf 6330 39be 4e3e e7be
000002d0: 7f37 24be 2fa3 7abe 97de 8fbe fdfe b3bc
000002e0: 314c 70be 7a50 c3be 9fe4 15bf 9a71 b6be
000002f0: c2f2 debe 7af6 b7be a7b3 b3be 83f2 e1be
00000300: 606c 6dbe 4717 d0be 47bc f5be d523 d9be
00000310: 8608 b4bd fcb5 a4be 7ef3 08bf 6a57 fabe
00000320: b2aa babe 8c14 97bd ed0d 9ebd 269c 0fbe
00000330: bd2d 15be c702 8bbe 893a 77be 8580 14be
00000340: fa23 58be 7d84 e1be ecff 90be 877f cdbd
00000350: 6e91 2bbe 52d4 71be 1bf6 34bd 29ea 6bbe
00000360: e9e1 a0be 27fa 95be 9c92 1fbe 3e4a 05be
00000370: 7c63 9dbd 3994 a1bc ff87 c1bd e6d4 d7be
00000380: 64f4 e1bd 0444 4fbe be94 ffbd 4e84 0b3d
00000390: 6bc2 75bd cb2c cfbe 090c f8be 8450 87be
000003a0: 7d29 63be d63f 75be d37c 9cbe a112 b73b
000003b0: af14 29be 0b59 473d 62f9 8ebe 0ae8 603c
000003c0: 5639 d1bc a604 81be 9def e4bd e49f 8b3d
000003d0: 6b8b b0bd 69fb 84be 9ebb 523c 4ce2 f83c
000003e0: 6618 f9bc 520c 55bb c0eb 95be 1a1b 08be
000003f0: b92b 15bd f4d6 55bd 41a6 c6bc f9a8 613e
-8.57628 -8.625004 -8.586012 -8.31824 -8.652766 -8.704862 -8.570169 -8.675675
-8.6429825 -8.65646 -8.754857 -8.741868 -8.704445 -8.540111 -8.706345 -8.632715
-8.625699 -8.717586 -8.587785 -8.598872 -8.665284 -8.667932 -8.611013 -8.623364
-8.668008 -8.734666 -7.0644846 -7.8795156 -5.2346306 -4.2509327 -5.172135 -4.0364065
-3.897629 -3.8729653 -3.6613774 -3.365423 -3.66894 -3.6053214 -3.1099367 -2.8250575
-2.909629 -2.5256097 -3.0235078 -2.6330233 -3.4569812 -2.7877755 -2.3744678 -2.615998
-2.7909615 -2.5254123 -1.9985403 -2.100713 -2.3705862 -2.0039124 -2.5147908 -2.1219244
-1.9727719 -1.9795158 -2.1774266 -2.035368 -1.9763299 -1.7167892 -1.7938572 -1.9103746
-1.9028789 -1.593411 -1.7908429 -1.9059134 -1.7761246 -2.2147493 -1.8155446 -1.7393095
-1.4750253 -1.6474347 -1.7656407 -1.5250154 -1.3921536 -1.3851153 -1.5769397 -1.6226538
-1.425484 -1.5125157 -1.2789563 -1.2572643 -1.3364531 -1.406412 -1.6735692 -1.5123997
-1.5445554 -1.1476221 -1.208846 -1.6190981 -1.3059121 -1.7655543 -1.6534663 -1.0376682
-1.2639989 -1.2360138 -1.4733311 -0.94287574 -1.5950345 -0.84254235 -1.4550877 -1.1062745
-1.0414301 -0.928 -0.93112534 -1.5612764 -1.1777344 -1.0155914 -0.9375967 -1.0940375
-1.1045195 -0.87671864 -0.811448 -1.0038255 -1.2297797 -0.8525753 -0.956593 -1.032798
-1.1395786 -0.66370785 -1.0541235 -0.88116866 -0.96876705 -0.80959326 -0.76851827 -0.81144917
-0.6986154 -1.1617208 -0.77108246 -0.68812054 -0.8895826 -0.503712 -0.9718196 -0.6193871
-0.76155216 -0.7804134 -0.8096086 -0.60418457 -0.978371 -0.9297234 -0.81473464 -0.7601288
-0.5737337 -0.5081863 -0.8360011 -0.57217705 -0.5594081 -0.65786016 -0.62553227 -0.8101556
-0.5422263 -0.47735497 -0.65304095 -0.77881765 -0.60482615 -0.7151138 -0.87071997 -0.36439067
-0.53978807 -0.51915824 -0.47217944 -0.5247869 -0.33324608 -0.44285175 -0.45922625 -0.41022998
-0.42372912 -0.37228954 -0.67381364 -0.16557322 -0.1070253 -0.35043037 -0.5601964 -0.5927805
-0.4179956 -0.55813956 -0.18084864 -0.45164722 -0.16036795 -0.24476312 -0.2809951 -0.021972174
-0.23466565 -0.38147336 -0.58551973 -0.35633546 -0.43544585 -0.35930234 -0.35098 -0.44130334
-0.23185873 -0.4064276 -0.47995207 -0.4241015 -0.08790688 -0.32170093 -0.5349654 -0.48894817
-0.36458355 -0.07376966 -0.077175 -0.1402441 -0.14568229 -0.27150556 -0.24143423 -0.14502151
-0.21107474 -0.44046393 -0.28320253 -0.100340895 -0.16754696 -0.2361615 -0.044180017 -0.23038544
-0.31422356 -0.29292414 -0.15583271 -0.13016602 -0.07684991 -0.019723998 -0.09449767 -0.42154616
-0.11032942 -0.2024079 -0.12479542 0.034061722 -0.059999865 -0.40463862 -0.48446682 -0.26428616
-0.22183795 -0.23950133 -0.30563983 0.0055869375 -0.16511796 0.048668902 -0.2792464 0.013727197
-0.025540035 -0.2519886 -0.11178515 0.06817606 -0.08620342 -0.2597306 0.012862114 0.030381344
-0.030407142 -0.0032508564 -0.29281425 -0.13291588 -0.03641865 -0.05220695 -0.024249198 0.22037114
